…
 07-14 23:28:31 | Creating the dataset cache...
 07-14 23:28:31 | Found the cache ./datasets/beat_cache/beat_smplx_en_face/val/smplxflame_30_cache
 07-14 23:28:31 | Init val dataloader success
 07-14 23:28:31 | Audio bit rate: 16000
 07-14 23:28:31 | Reading data './BEAT2/beat_english_v2.0.0/'...
 07-14 23:28:31 | Creating the dataset cache...
 07-14 23:28:31 | Found the cache ./datasets/beat_cache/beat_smplx_en_face/test/smplxflame_30_cache
 07-14 23:28:31 | Init test dataloader success
 07-14 23:28:32 | DataParallel(
  (module): VQVAEConvZero(
    (encoder): VQEncoderV5(
      (main): Sequential(
        (0): Conv1d(106, 256, kernel_size=(3,), stride=(1,), padding=(1,))
        (1): LeakyReLU(negative_slope=0.2, inplace=True)
        (2): ResBlock(
          (model): Sequential(
            (0): Conv1d(256, 256, kernel_size=(3,), stride=(1,), padding=(1,))
            (1): LeakyReLU(negative_slope=0.2, inplace=True)
            (2): Conv1d(256, 256, kernel_size=(3,), stride=(1,), padding=(1,))
          )
        )
        (3): Conv1d(256, 256, kernel_size=(3,), stride=(1,), padding=(1,))
        (4): LeakyReLU(negative_slope=0.2, inplace=True)
        (5): ResBlock(
          (model): Sequential(
            (0): Conv1d(256, 256, kernel_size=(3,), stride=(1,), padding=(1,))
            (1): LeakyReLU(negative_slope=0.2, inplace=True)
            (2): Conv1d(256, 256, kernel_size=(3,), stride=(1,), padding=(1,))
          )
        )
      )
    )
    (quantizer): Quantizer(
      (embedding): Embedding(256, 256)
    )
    (decoder): VQDecoderV5(
      (main): Sequential(
        (0): ResBlock(
          (model): Sequential(
            (0): Conv1d(256, 256, kernel_size=(3,), stride=(1,), padding=(1,))
            (1): LeakyReLU(negative_slope=0.2, inplace=True)
            (2): Conv1d(256, 256, kernel_size=(3,), stride=(1,), padding=(1,))
          )
        )
        (1): ResBlock(
          (model): Sequential(
            (0): Conv1d(256, 256, kernel_size=(3,), stride=(1,), padding=(1,))
            (1): LeakyReLU(negative_slope=0.2, inplace=True)
            (2): Conv1d(256, 256, kernel_size=(3,), stride=(1,), padding=(1,))
          )
        )
        (2): Conv1d(256, 256, kernel_size=(3,), stride=(1,), padding=(1,))
        (3): LeakyReLU(negative_slope=0.2, inplace=True)
        (4): Conv1d(256, 106, kernel_size=(3,), stride=(1,), padding=(1,))
        (5): LeakyReLU(negative_slope=0.2, inplace=True)
        (6): Conv1d(106, 106, kernel_size=(3,), stride=(1,), padding=(1,))
      )
    )
  )
)
 07-14 23:28:32 | init VQVAEConvZero success
 07-14 23:28:32 | Training from scratch ...
 07-14 23:28:42 | Curr info >>>>  rec: 1.111     	vel: 0.099     	acc: 0.251     	com: 0.801     	face: 1.241     	face_vel: 0.025     	face_acc: 0.024     	ver: 0.000     	ver_vel: 0.000     	ver_acc: 0.000     	
 07-14 23:28:42 | Best info >>>>  rec: inf(000)	vel: inf(000)	acc: inf(000)	com: inf(000)	face: inf(000)	face_vel: inf(000)	face_acc: inf(000)	ver: inf(000)	ver_vel: inf(000)	ver_acc: inf(000)	
…
 07-15 15:40:36 | Creating the dataset cache...
 07-15 15:40:36 | Found the cache ./datasets/beat_cache/beat_smplx_en_hands/val/smplxflame_30_cache
 07-15 15:40:36 | Init val dataloader success
 07-15 15:40:36 | Audio bit rate: 16000
 07-15 15:40:36 | Reading data './BEAT2/beat_english_v2.0.0/'...
 07-15 15:40:36 | Creating the dataset cache...
 07-15 15:40:36 | Found the cache ./datasets/beat_cache/beat_smplx_en_hands/test/smplxflame_30_cache
 07-15 15:40:36 | Init test dataloader success
 07-15 15:40:36 | DataParallel(
  (module): VQVAEConvZero(
    (encoder): VQEncoderV5(
      (main): Sequential(
        (0): Conv1d(180, 256, kernel_size=(3,), stride=(1,), padding=(1,))
        (1): LeakyReLU(negative_slope=0.2, inplace=True)
        (2): ResBlock(
          (model): Sequential(
            (0): Conv1d(256, 256, kernel_size=(3,), stride=(1,), padding=(1,))
            (1): LeakyReLU(negative_slope=0.2, inplace=True)
            (2): Conv1d(256, 256, kernel_size=(3,), stride=(1,), padding=(1,))
          )
        )
        (3): Conv1d(256, 256, kernel_size=(3,), stride=(1,), padding=(1,))
        (4): LeakyReLU(negative_slope=0.2, inplace=True)
        (5): ResBlock(
          (model): Sequential(
            (0): Conv1d(256, 256, kernel_size=(3,), stride=(1,), padding=(1,))
            (1): LeakyReLU(negative_slope=0.2, inplace=True)
            (2): Conv1d(256, 256, kernel_size=(3,), stride=(1,), padding=(1,))
          )
        )
      )
    )
    (quantizer): Quantizer(
      (embedding): Embedding(256, 256)
    )
    (decoder): VQDecoderV5(
      (main): Sequential(
        (0): ResBlock(
          (model): Sequential(
            (0): Conv1d(256, 256, kernel_size=(3,), stride=(1,), padding=(1,))
            (1): LeakyReLU(negative_slope=0.2, inplace=True)
            (2): Conv1d(256, 256, kernel_size=(3,), stride=(1,), padding=(1,))
          )
        )
        (1): ResBlock(
          (model): Sequential(
            (0): Conv1d(256, 256, kernel_size=(3,), stride=(1,), padding=(1,))
            (1): LeakyReLU(negative_slope=0.2, inplace=True)
            (2): Conv1d(256, 256, kernel_size=(3,), stride=(1,), padding=(1,))
          )
        )
        (2): Conv1d(256, 256, kernel_size=(3,), stride=(1,), padding=(1,))
        (3): LeakyReLU(negative_slope=0.2, inplace=True)
        (4): Conv1d(256, 180, kernel_size=(3,), stride=(1,), padding=(1,))
        (5): LeakyReLU(negative_slope=0.2, inplace=True)
        (6): Conv1d(180, 180, kernel_size=(3,), stride=(1,), padding=(1,))
      )
    )
  )
)
 07-15 15:40:36 | init VQVAEConvZero success
 07-15 15:40:37 | Training from scratch ...
 07-15 15:40:46 | Curr info >>>>  rec: 2.267     	ver: 0.000     	com: 0.326     	
 07-15 15:40:46 | Best info >>>>  rec: inf(000)	ver: inf(000)	com: inf(000)	
 07-15 15:40:46 | Time info >>>>  elapsed: 0.15 mins	remain: 298086205.97 mins
…
 07-16 02:35:39 | Creating the dataset cache...
 07-16 02:35:39 | Found the cache ./datasets/beat_cache/beat_smplx_en_lower/val/smplxflame_30_cache
 07-16 02:35:39 | Init val dataloader success
 07-16 02:35:39 | Audio bit rate: 16000
 07-16 02:35:39 | Reading data './BEAT2/beat_english_v2.0.0/'...
 07-16 02:35:39 | Creating the dataset cache...
 07-16 02:35:39 | Found the cache ./datasets/beat_cache/beat_smplx_en_lower/test/smplxflame_30_cache
 07-16 02:35:39 | Init test dataloader success
 07-16 02:35:39 | DataParallel(
  (module): VAEConvZero(
    (encoder): VQEncoderV5(
      (main): Sequential(
        (0): Conv1d(61, 256, kernel_size=(3,), stride=(1,), padding=(1,))
        (1): LeakyReLU(negative_slope=0.2, inplace=True)
        (2): ResBlock(
          (model): Sequential(
            (0): Conv1d(256, 256, kernel_size=(3,), stride=(1,), padding=(1,))
            (1): LeakyReLU(negative_slope=0.2, inplace=True)
            (2): Conv1d(256, 256, kernel_size=(3,), stride=(1,), padding=(1,))
          )
        )
        (3): Conv1d(256, 256, kernel_size=(3,), stride=(1,), padding=(1,))
        (4): LeakyReLU(negative_slope=0.2, inplace=True)
        (5): ResBlock(
          (model): Sequential(
            (0): Conv1d(256, 256, kernel_size=(3,), stride=(1,), padding=(1,))
            (1): LeakyReLU(negative_slope=0.2, inplace=True)
            (2): Conv1d(256, 256, kernel_size=(3,), stride=(1,), padding=(1,))
          )
        )
        (6): Conv1d(256, 256, kernel_size=(3,), stride=(1,), padding=(1,))
        (7): LeakyReLU(negative_slope=0.2, inplace=True)
        (8): ResBlock(
          (model): Sequential(
            (0): Conv1d(256, 256, kernel_size=(3,), stride=(1,), padding=(1,))
            (1): LeakyReLU(negative_slope=0.2, inplace=True)
            (2): Conv1d(256, 256, kernel_size=(3,), stride=(1,), padding=(1,))
          )
        )
        (9): Conv1d(256, 256, kernel_size=(3,), stride=(1,), padding=(1,))
        (10): LeakyReLU(negative_slope=0.2, inplace=True)
        (11): ResBlock(
          (model): Sequential(
            (0): Conv1d(256, 256, kernel_size=(3,), stride=(1,), padding=(1,))
            (1): LeakyReLU(negative_slope=0.2, inplace=True)
            (2): Conv1d(256, 256, kernel_size=(3,), stride=(1,), padding=(1,))
          )
        )
      )
    )
    (decoder): VQDecoderV5(
      (main): Sequential(
        (0): ResBlock(
          (model): Sequential(
            (0): Conv1d(256, 256, kernel_size=(3,), stride=(1,), padding=(1,))
            (1): LeakyReLU(negative_slope=0.2, inplace=True)
            (2): Conv1d(256, 256, kernel_size=(3,), stride=(1,), padding=(1,))
          )
        )
        (1): ResBlock(
          (model): Sequential(
            (0): Conv1d(256, 256, kernel_size=(3,), stride=(1,), padding=(1,))
            (1): LeakyReLU(negative_slope=0.2, inplace=True)
            (2): Conv1d(256, 256, kernel_size=(3,), stride=(1,), padding=(1,))
          )
        )
        (2): Conv1d(256, 256, kernel_size=(3,), stride=(1,), padding=(1,))
        (3): LeakyReLU(negative_slope=0.2, inplace=True)
        (4): Conv1d(256, 256, kernel_size=(3,), stride=(1,), padding=(1,))
        (5): LeakyReLU(negative_slope=0.2, inplace=True)
        (6): Conv1d(256, 256, kernel_size=(3,), stride=(1,), padding=(1,))
        (7): LeakyReLU(negative_slope=0.2, inplace=True)
        (8): Conv1d(256, 61, kernel_size=(3,), stride=(1,), padding=(1,))
        (9): LeakyReLU(negative_slope=0.2, inplace=True)
        (10): Conv1d(61, 61, kernel_size=(3,), stride=(1,), padding=(1,))
      )
    )
  )
)
 07-16 02:35:39 | init VAEConvZero success
 07-16 02:35:40 | Training from scratch ...
 07-16 02:35:50 | Curr info >>>>  contact: 0.908     	foot: 0.000     	ver: 0.514     	trans: 0.501     	transv: 0.301     	
 07-16 02:35:50 | Best info >>>>  contact: inf(000)	foot: inf(000)	ver: inf(000)	trans: inf(000)	transv: inf(000)	
 07-16 02:35:50 | Time info >>>>  elapsed: 0.16 mins	remain: 312495024.84 mins
…
 07-16 08:28:20 | Creating the dataset cache...
 07-16 08:28:20 | Found the cache ./datasets/beat_cache/beat_smplx_en_lower/val/smplxflame_30_cache
 07-16 08:28:20 | Init val dataloader success
 07-16 08:28:21 | Audio bit rate: 16000
 07-16 08:28:21 | Reading data './BEAT2/beat_english_v2.0.0/'...
 07-16 08:28:21 | Creating the dataset cache...
 07-16 08:28:21 | Found the cache ./datasets/beat_cache/beat_smplx_en_lower/test/smplxflame_30_cache
 07-16 08:28:21 | Init test dataloader success
 07-16 08:28:21 | DataParallel(
  (module): VQVAEConvZero(
    (encoder): VQEncoderV5(
      (main): Sequential(
        (0): Conv1d(61, 256, kernel_size=(3,), stride=(1,), padding=(1,))
        (1): LeakyReLU(negative_slope=0.2, inplace=True)
        (2): ResBlock(
          (model): Sequential(
            (0): Conv1d(256, 256, kernel_size=(3,), stride=(1,), padding=(1,))
            (1): LeakyReLU(negative_slope=0.2, inplace=True)
            (2): Conv1d(256, 256, kernel_size=(3,), stride=(1,), padding=(1,))
          )
        )
        (3): Conv1d(256, 256, kernel_size=(3,), stride=(1,), padding=(1,))
        (4): LeakyReLU(negative_slope=0.2, inplace=True)
        (5): ResBlock(
          (model): Sequential(
            (0): Conv1d(256, 256, kernel_size=(3,), stride=(1,), padding=(1,))
            (1): LeakyReLU(negative_slope=0.2, inplace=True)
            (2): Conv1d(256, 256, kernel_size=(3,), stride=(1,), padding=(1,))
          )
        )
        (6): Conv1d(256, 256, kernel_size=(3,), stride=(1,), padding=(1,))
        (7): LeakyReLU(negative_slope=0.2, inplace=True)
        (8): ResBlock(
          (model): Sequential(
            (0): Conv1d(256, 256, kernel_size=(3,), stride=(1,), padding=(1,))
            (1): LeakyReLU(negative_slope=0.2, inplace=True)
            (2): Conv1d(256, 256, kernel_size=(3,), stride=(1,), padding=(1,))
          )
        )
        (9): Conv1d(256, 256, kernel_size=(3,), stride=(1,), padding=(1,))
        (10): LeakyReLU(negative_slope=0.2, inplace=True)
        (11): ResBlock(
          (model): Sequential(
            (0): Conv1d(256, 256, kernel_size=(3,), stride=(1,), padding=(1,))
            (1): LeakyReLU(negative_slope=0.2, inplace=True)
            (2): Conv1d(256, 256, kernel_size=(3,), stride=(1,), padding=(1,))
          )
        )
      )
    )
    (quantizer): Quantizer(
      (embedding): Embedding(256, 256)
    )
    (decoder): VQDecoderV5(
      (main): Sequential(
        (0): ResBlock(
          (model): Sequential(
            (0): Conv1d(256, 256, kernel_size=(3,), stride=(1,), padding=(1,))
            (1): LeakyReLU(negative_slope=0.2, inplace=True)
            (2): Conv1d(256, 256, kernel_size=(3,), stride=(1,), padding=(1,))
          )
        )
        (1): ResBlock(
          (model): Sequential(
            (0): Conv1d(256, 256, kernel_size=(3,), stride=(1,), padding=(1,))
            (1): LeakyReLU(negative_slope=0.2, inplace=True)
            (2): Conv1d(256, 256, kernel_size=(3,), stride=(1,), padding=(1,))
          )
        )
        (2): Conv1d(256, 256, kernel_size=(3,), stride=(1,), padding=(1,))
        (3): LeakyReLU(negative_slope=0.2, inplace=True)
        (4): Conv1d(256, 256, kernel_size=(3,), stride=(1,), padding=(1,))
        (5): LeakyReLU(negative_slope=0.2, inplace=True)
        (6): Conv1d(256, 256, kernel_size=(3,), stride=(1,), padding=(1,))
        (7): LeakyReLU(negative_slope=0.2, inplace=True)
        (8): Conv1d(256, 61, kernel_size=(3,), stride=(1,), padding=(1,))
        (9): LeakyReLU(negative_slope=0.2, inplace=True)
        (10): Conv1d(61, 61, kernel_size=(3,), stride=(1,), padding=(1,))
      )
    )
  )
)
 07-16 08:28:21 | init VQVAEConvZero success
 07-16 08:28:22 | Training from scratch ...
 07-16 08:28:32 | Curr info >>>>  rec: 2.326     	contact: 0.915     	foot: 0.000     	ver: 0.486     	com: 0.128     	
 07-16 08:28:32 | Best info >>>>  rec: inf(000)	contact: inf(000)	foot: inf(000)	ver: inf(000)	com: inf(000)	
 07-16 08:28:32 | Time info >>>>  elapsed: 0.17 mins	remain: 345953567.65 mins
…
 07-16 19:33:04 | Creating the dataset cache...
 07-16 19:33:04 | Found the cache ./datasets/beat_cache/beat_smplx_en_upper/val/smplxflame_30_cache
 07-16 19:33:04 | Init val dataloader success
 07-16 19:33:04 | Audio bit rate: 16000
 07-16 19:33:04 | Reading data './BEAT2/beat_english_v2.0.0/'...
 07-16 19:33:04 | Creating the dataset cache...
 07-16 19:33:04 | Found the cache ./datasets/beat_cache/beat_smplx_en_upper/test/smplxflame_30_cache
 07-16 19:33:04 | Init test dataloader success
 07-16 19:33:05 | DataParallel(
  (module): VQVAEConvZero(
    (encoder): VQEncoderV5(
      (main): Sequential(
        (0): Conv1d(78, 256, kernel_size=(3,), stride=(1,), padding=(1,))
        (1): LeakyReLU(negative_slope=0.2, inplace=True)
        (2): ResBlock(
          (model): Sequential(
            (0): Conv1d(256, 256, kernel_size=(3,), stride=(1,), padding=(1,))
            (1): LeakyReLU(negative_slope=0.2, inplace=True)
            (2): Conv1d(256, 256, kernel_size=(3,), stride=(1,), padding=(1,))
          )
        )
        (3): Conv1d(256, 256, kernel_size=(3,), stride=(1,), padding=(1,))
        (4): LeakyReLU(negative_slope=0.2, inplace=True)
        (5): ResBlock(
          (model): Sequential(
            (0): Conv1d(256, 256, kernel_size=(3,), stride=(1,), padding=(1,))
            (1): LeakyReLU(negative_slope=0.2, inplace=True)
            (2): Conv1d(256, 256, kernel_size=(3,), stride=(1,), padding=(1,))
          )
        )
      )
    )
    (quantizer): Quantizer(
      (embedding): Embedding(256, 256)
    )
    (decoder): VQDecoderV5(
      (main): Sequential(
        (0): ResBlock(
          (model): Sequential(
            (0): Conv1d(256, 256, kernel_size=(3,), stride=(1,), padding=(1,))
            (1): LeakyReLU(negative_slope=0.2, inplace=True)
            (2): Conv1d(256, 256, kernel_size=(3,), stride=(1,), padding=(1,))
          )
        )
        (1): ResBlock(
          (model): Sequential(
            (0): Conv1d(256, 256, kernel_size=(3,), stride=(1,), padding=(1,))
            (1): LeakyReLU(negative_slope=0.2, inplace=True)
            (2): Conv1d(256, 256, kernel_size=(3,), stride=(1,), padding=(1,))
          )
        )
        (2): Conv1d(256, 256, kernel_size=(3,), stride=(1,), padding=(1,))
        (3): LeakyReLU(negative_slope=0.2, inplace=True)
        (4): Conv1d(256, 78, kernel_size=(3,), stride=(1,), padding=(1,))
        (5): LeakyReLU(negative_slope=0.2, inplace=True)
        (6): Conv1d(78, 78, kernel_size=(3,), stride=(1,), padding=(1,))
      )
    )
  )
)
 07-16 19:33:05 | init VQVAEConvZero success
 07-16 19:33:06 | Training from scratch ...
 07-16 19:33:16 | Curr info >>>>  rec: 2.005     	ver: 0.155     	com: 0.151     	
 07-16 19:33:16 | Best info >>>>  rec: inf(000)	ver: inf(000)	com: inf(000)	
 07-16 19:33:16 | Time info >>>>  elapsed: 0.17 mins	remain: 345570206.47 mins
…
